Single-Agent-DQN/checkpoint.pth (torch, 62562 bytes, 9 tensors)

fc1.weight f4 [64, 162]
0.41430423 -0.4580239 0.5766888 -0.71530443 0.75472766 -1.0519451 0.7086055 -0.7578549
0.070937194 -0.10118003 0.06250217 -0.20489812 0.004813458 -0.09274778 0.0016737264 -0.052818198
-0.013678921 -0.030319028 -0.057148684 0.15704635 0.13119088 0.11389596 0.20350018 -0.35174397
0.15141298 -0.42622328 -0.27177218 0.06648475 -0.14835554 0.11998737 -0.07434531 0.048117034
-0.12374486 0.042171735 -0.114527844 0.061909694 -0.059383914 0.16082397 0.10829709 0.14654273
0.15193547 -0.22929189 0.17285515 -0.36103153 -0.37896857 0.27521032 -0.06881708 0.074695215
-0.031432133 0.07254112 -0.058696754 0.11873868 -0.050402973 0.0639313 -0.009036417 0.059796702
0.008183276 -0.008922027 0.06427788 -0.21242017 0.10814228 -0.20900343 -0.41232088 0.2440341
-0.13201311 -0.015357308 -0.09335454 0.053071838 -0.037798632 0.03936975 0.0004568661 -0.0057481746
-0.021817876 0.07112418 0.08420694 0.07766538 0.1076094 -0.21324359 0.16173686 -0.23470889
-0.34854466 0.39017943 -0.024963027 -0.028150938 0.0038051247 -0.021545812 0.05073885 -0.07003663
0.32212743 -0.04653576 -0.042677548 0.018046442 0.044622462 0.018742602 0.00785524 -0.072401
-0.01557364 -0.018840559 -0.051503804 0.13526812 -0.0023990392 0.049664725 -0.005285592 0.0015985204
0.0101884175 -0.04625873 0.011854056 -0.060755458 -0.082910284 -0.054755002 -0.050880596 0.06590218
-0.041039925 -0.005249316 0.051617518 -0.060218953 -0.06799006 0.09543644 0.0061759967 -0.023093961
0.031294648 -0.0056375447 0.016595613 -0.011100542 -0.0067566843 -0.017289659 0.0028804876 -0.028246934
-0.029815607 -0.06059007 -0.004176714 -0.0026727722 -0.042733185 -0.017119573 0.0098022055 0.028734647
0.0100787515 0.0038880135 -0.0020780114 0.016367659 0.048288178 -0.01999796 0.04724595 -0.027570454
-0.015823444 -0.021367138 0.0109038735 0.011168684 -0.049144674 -0.048499018 0.022749789 -0.011680865
-0.04584412 0.09134869 0.04060749 -0.04021863 0.092607915 -0.025938109 0.026423935 -0.028370665
-0.019813633 -0.015325506 -0.07732917 -0.07148343 -0.022032632 -0.0054846723 -0.04692715 0.014234457
-0.08024504 -0.018565657 0.05957529 -0.041969426 0.067069836 0.032856673 -0.077004604 0.045371804
-0.01401924 -0.036277827 0.057520367 -0.065281175 0.0022295609 -0.017692301 0.050725687 0.026270369
0.03349793 0.037696265 -0.024572078 -0.023290468 -0.074208945 0.031105453 0.051693108 0.049120408
-0.061277688 -0.00045220193 -0.060281888 -0.044188015 -0.05095532 0.025330678 -0.053499684 -0.0064756116
0.008236224 0.06337949 -0.06555443 -0.05485022 -0.054821726 0.042293638 -0.017541213 0.08918494
0.02227889 0.009112807 -0.007845959 -0.020134892 0.004960495 -0.018878365 -0.0057257377 0.00850531
-0.07105302 -0.04631526 0.057506323 -0.06327246 -0.0126234405 0.07503214 0.01880982 -0.0075985463
-0.074546725 0.03566919 -0.06335653 -0.023318078 -0.023113238 -0.009345305 -0.0040376796 0.06386512
0.0046345787 0.06885294 0.045306098 -0.04223451 0.029308325 -0.05604611 -0.039529487 0.021723224
0.022008233 0.06661655 -0.030701188 0.002519558 0.035411984 -0.07599843 0.049080756 -0.069844194
-0.004362151 -0.014413681 -0.047561143 0.010384336 0.053565625 -0.037844956 -0.05525214 -0.03658943
00000000: af1f d43e 1c82 eabe e1a1 133f 311e 37bf
00000010: d535 413f 23a6 86bf 2c67 353f c702 42bf
00000020: 8547 913d 7a37 cfbd 2301 803d d0d0 51be
00000030: 36ba 9d3b 8cf2 bdbd f060 db3a e557 58bd
00000040: 8e1d 60bc 9c5f f8bc bd14 6abd c2d0 203e
00000050: e756 063e 4942 e93d 5a62 503e c917 b4be
00000060: 010c 1b3e f039 dabe b925 8bbe 2829 883d
00000070: 84ea 17be f0bb f53d 5b42 98bd 5e16 453d
00000080: f26d fdbd 45bc 2c3d 938d eabd 0595 7d3d
00000090: 8c3c 73bd 0aaf 243e ddca dd3d 4c0f 163e
000000a0: f994 1b3e 7ecb 6abe f100 313e 20d9 b8be
000000b0: 2b08 c2be 5ee8 8c3e f8ef 8cbd cef9 983d
000000c0: fbbe 00bd 7090 943d 026c 70bd 442d f33d
000000d0: 5973 4ebd 6aee 823d 7b0d 14bc 63ed 743d
000000e0: 2613 063c b22d 12bc 1fa4 833d ac84 59be
000000f0: b379 dd3d ff04 56be b91b d3be 13e4 793e
00000100: 722e 07be 389d 7bbc aa30 bfbd db61 593d
00000110: bdd2 1abd 2d42 213d 8887 ef39 2f5b bcbb
00000120: 67bb b2bc 8ea9 913d b074 ac3d 070f 9f3d
00000130: 5162 dc3d 875c 5abe 599e 253e 8757 70be
00000140: 7274 b2be 99c5 c73e 437f ccbc cc9c e6bc
00000150: 665f 793b d880 b0bc 8ad3 4f3d 5d6f 8fbd
00000160: e3ed a43e 489c 3ebd a7ce 2ebd 22d6 933c
00000170: 0bc6 363d 168a 993c 44b3 003c fa46 94bd
00000180: 9528 7fbc 8457 9abc a7f5 52bd ba83 0a3e
00000190: 3339 1dbb 3d6d 4b3d c232 adbb 7285 d13a
000001a0: 52ed 263c cb79 3dbd 8437 423c b7da 78bd
000001b0: decc a9bd c846 60bd 2c68 50bd b9f7 863d
000001c0: 7b19 28bd 7402 acbb e46c 533d 26a8 76bd
000001d0: 5f3e 8bbd 2e74 c33d 0460 ca3b 8c2f bdbc
000001e0: d12e 003d 27bb b8bb 86f3 873c 0cdf 35bc
000001f0: 2d67 ddbb 0ba3 8dbc 90c6 3c3b 1d66 e7bc
00000200: dc3f f4bc 4b2d 78bd d1dc 88bb ad29 2fbb
00000210: fe08 2fbd 593e 8cbc 6e99 203c ec64 eb3c
00000220: 5921 253c 0bce 7e3b 3f2f 08bb 7815 863c
00000230: d3c9 453d c3d2 a3bc f884 413d 6fdb e1bc
00000240: 2ba0 81bc 230a afbc 29a6 323c dbfc 363c
00000250: ed4b 49bd e8a6 46bd c45d ba3c 1961 3fbc
00000260: 0bc7 3bbd 0615 bb3d 0a54 263d 4abc 24bd
00000270: 38a9 bd3d 287c d4bc 0277 d83c 9969 e8bc
00000280: 3350 a2bc d517 7bbc c25e 9ebd e865 92bd
00000290: c77d b4bc c4b8 b3bb af36 40bd a437 693c
000002a0: 8357 a4bd 0117 98bc 3805 743d 22e8 2bbd
000002b0: e95b 893d b894 063d 97b4 9dbd c9d7 393d
000002c0: f4b0 65bc 0f98 14bd 7a9a 6b3d 23b2 85bd
000002d0: d31d 123b 72ef 90bc bdc5 4f3d f534 d73c
000002e0: 2035 093d 6667 1a3d 624b c9bc a7cb bebc
000002f0: dcfa 97bd ddd0 fe3c 27bc 533d 7b32 493d
00000300: 50fe 7abd 8415 edb9 24ea 76bd 7efe 34bd
00000310: 87b6 50bd 4882 cf3c 7c22 5bbd 5e31 d4bb
00000320: 3af1 063c 1bcd 813d 6741 86bd a0aa 60bd
00000330: bf8c 60bd 183c 2d3d 97b2 8fbc 98a6 b63d
00000340: 3882 b63c e24d 153c 568c 00bc eef1 a4bc
00000350: a68b a23b cda6 9abc f89e bbbb db59 0b3c
00000360: 3f84 91bd 12b5 3dbd c08b 6b3d fe94 81bd
00000370: 8cd2 4ebc 73aa 993d 0d17 9a3c 3afd f8bb
00000380: f4ab 98bd db19 123d 12c1 81bd 8e05 bfbc
00000390: f957 bdbc 0d1d 19bc 834e 84bb b7cb 823d
000003a0: aadd 973b c502 8d3d e392 393d 18fe 2cbd
000003b0: 0318 f03c 9b90 65bd ace9 21bd e7f4 b13c
000003c0: 9c4a b43c 426e 883d 0f81 fbbc 2b1f 253b
000003d0: 280c 113d 11a5 9bbd e708 493d 790a 8fbd
000003e0: 60f0 8ebb 5c27 6cbc 79cf 42bd 1023 2a3c
000003f0: a167 5b3d 5003 1bbd 1150 62bd ccde 15bd

fc1.bias f4 [64]
0.3361993 -0.07351028 0.6407933 -0.44547236 -0.56138086 0.4514318 -0.027308809 0.013561518
0.057564817 -0.041345622 0.18814065 0.19614343 -0.10856254 0.07922669 -0.29974237 0.34781557
0.025234103 0.029363833 -0.4560496 0.15764898 0.57026196 -0.032996733 0.5319037 -0.51160634
0.051830053 -0.39369768 0.5619667 0.4634832 0.13102435 0.23981532 -0.09266176 -0.49459144
0.38966045 0.58431065 -0.4695742 -0.44548777 -0.15119162 0.5166723 -0.10789375 0.6846907
0.39070395 0.55045736 -0.053175963 -0.46960825 0.5514673 0.6566759 0.19751258 -0.06323726
-0.015819121 0.13111432 -0.027932532 -0.54792905 -0.39530817 0.48883376 -0.5239478 -0.4196677
0.002265472 -0.5963611 -0.3369848 -0.12935738 -0.022550592 -0.04823686 -0.41748214 0.15531567
00000000: 5122 ac3e 8f8c 96bd 080b 243f f414 e4be
00000010: a8b6 0fbf 1222 e73e b9b6 dfbc 2131 5e3c
00000020: 16c9 6b3d 075a 29bd f1a7 403e d3d9 483e
00000030: 0956 debd 9a41 a23d d577 99be e214 b23e
00000040: c0b7 ce3c 6c8c f03c 557f e9be bc6e 213e
00000050: b0fc 113f 9527 07bd d72a 083f a2f8 02bf
00000060: c04b 543d be92 c9be 0ddd 0f3f ac4d ed3e
00000070: 3f2b 063e 2692 753e 73c5 bdbd 173b fdbe
00000080: 9381 c73e 6295 153f 086c f0be f916 e4be
00000090: fad1 1abe a344 043f 66f7 dcbd e447 2f3f
000000a0: 590a c83e c6ea 0c3f 0acf 59bd 7e70 f0be
000000b0: f62c 0d3f e91b 283f bd40 4a3e 8982 81bd
000000c0: 1a97 81bc d542 063e c4d2 e4bc 1445 0cbf
000000d0: d565 cabe 6b48 fa3e 7121 06bf afde d6be
000000e0: 5078 143b 1fab 18bf 4689 acbe 4376 04be
000000f0: 05bc b8bc 0494 45bd 38c0 d5be 120b 1f3e

ad1.weight f4 [32, 64]
0.14409086 0.08788742 -0.19653429 0.06827695 -0.13224655 0.17531309 -0.2124146 -0.09922203
0.044181705 0.11002355 0.20256357 0.09746198 0.03392327 -0.0712374 0.114168085 -0.116626166
-0.07152995 0.02988815 -0.012434154 0.34339374 0.17022847 0.11939788 0.2239675 -0.08080257
-0.17264639 -0.28673467 0.330427 0.16537267 0.116458505 0.16413124 -0.091064796 0.027068129
0.100714706 -0.19557053 -0.05419276 0.023799932 0.16843602 -0.16415904 0.008937481 0.598562
0.13238145 -0.13080078 -0.022151547 0.035532545 -0.19314322 -0.029215612 0.6007434 0.09252237
-0.2317005 -0.08297799 -0.09384377 0.039256345 0.15586062 -0.059869543 0.040217105 -0.097650975
0.09205841 -0.060023535 0.15258777 0.0010915061 0.0771219 -0.05262576 -0.03416685 0.18340643
-0.03432232 0.11119302 -0.1882287 -0.12242472 0.40423134 -0.5564705 0.013250579 -0.23599976
-0.16318718 0.039007735 0.11240301 -0.005559583 0.07604626 -0.15942346 0.054629955 -0.15431434
-0.0055781673 0.09297092 -0.05419284 -0.62898755 -0.07615392 0.004147604 -0.4041995 0.105430044
0.279818 0.58838004 0.035635784 -0.2619526 -0.14474513 -1.1444579 0.3468928 -0.116488054
0.013815594 -0.08712021 0.28506985 0.14688207 -0.20617704 -0.06349171 0.1278616 -1.3209375
-0.19378074 0.04945924 0.09129014 -0.017658463 -0.3935501 -0.1339216 -0.15361255 -0.032165855
0.03800079 -0.23661655 -0.08733033 0.08515304 -0.09044445 -0.16764207 0.17521057 0.00057576626
-0.06738896 0.18923429 0.120207585 0.16430853 0.096717 -0.092141144 0.09168665 -0.09590265
-0.16571085 -0.11398153 -0.009369955 -0.24332401 -0.13002037 -0.29149595 -0.030942386 0.0034054841
-0.1747994 -0.02787148 0.13978833 0.091730505 0.15360257 0.099199004 0.4447617 0.0994136
0.041355133 0.21391611 -0.09939251 -0.17388843 -0.022152983 -0.10468066 -0.37745148 0.5706727
0.12793426 0.29615784 -0.21988767 0.20866601 -0.21189982 -0.037488397 -0.04359256 -0.08722274
-0.053563222 -0.0035382654 -0.3243563 -0.025169587 -0.508766 -0.010825153 0.22744589 -0.5464556
-0.06968561 -0.37421796 -0.0552385 -0.07200701 0.02776537 -0.30521744 0.08505484 0.06855151
0.23000273 -0.05307558 0.102346495 0.10335675 0.10109689 -0.25775865 0.18931797 -0.21715795
0.07502657 0.038536005 0.17688482 0.13092682 0.08073199 0.0014464201 0.33253792 0.08880676
0.23413107 -0.020773606 -0.006455266 0.14350532 0.14011018 0.08251694 -0.24574946 -0.20051125
-0.13530059 0.1542751 0.13105078 -0.098732136 -0.004955988 -0.12476651 -0.3810399 0.02937294
0.0069529386 -0.005865068 0.14705233 -0.023566544 -0.11225439 -0.00044557452 0.15415958 -0.28089944
-0.1385078 -0.22579114 0.119201094 0.059567064 -0.014033404 0.029920839 -0.07208269 0.087655604
-0.15471356 -0.00017881185 0.32208985 -0.13829151 0.29588938 -0.2656508 -0.121141575 0.12092315
-0.14459595 0.009020258 0.05095026 0.10463962 -0.10979472 0.02780165 0.20992711 -0.10174537
-0.32599908 -0.0782017 0.11652249 -0.0759403 0.113751926 0.1102453 0.009793287 0.10047834
-0.045132715 -0.074162826 -0.09824679 -0.084201604 0.013750885 0.07624172 -0.15923272 -0.04739866
00000000: 8e8c 133e 52fe b33d 4940 49be c9d4 8b3d
00000010: a46b 07be 4685 333e 3783 59be eb34 cbbd
00000020: e0f7 343d 0754 e13d d36c 4f3e 269a c73d
00000030: 20f3 0a3d eae4 91bd f5d0 e93d b3d9 eebd
00000040: 4b7e 92bd fed7 f43c 9fb8 4bbc 4ed1 af3e
00000050: 5f50 2e3e e086 f43d bc57 653e d17b a5bd
00000060: 37ca 30be e3ce 92be ba2d a93e 7457 293e
00000070: cc81 ee3d 0512 283e 2e80 babd fbbd dd3c
00000080: 8343 ce3d a443 48be 3af9 5dbd 13f8 c23c
00000090: 7e7a 2c3e 4f19 28be 836e 123c 5c3b 193f
000000a0: 018f 073e a4f0 05be 2977 b5bc 938a 113d
000000b0: 56c7 45be 9455 efbc 52ca 193f 5e7c bd3d
000000c0: e542 6dbe 5df0 a9bd 2a31 c0bd 43cb 203d
000000d0: ed99 1f3e c439 75bd b1ba 243d 3cfd c7bd
000000e0: 1f89 bc3d 3ddb 75bd f83f 1c3e de10 8f3a
000000f0: 16f2 9d3d 1c8e 57bd 8af2 0bbd e5ce 3b3e
00000100: 9095 0cbd 2bb9 e33d 06bf 40be d0b9 fabd
00000110: 69f7 ce3e da74 0ebf f518 593c eca9 71be
00000120: 8a1a 27be 93c6 1f3d 8d33 e63d 2a2d b6bb
00000130: 24be 9b3d e73f 23be a9c3 5f3d 9404 1ebe
00000140: 0fc9 b6bb 8a67 be3d 50f9 5dbd 5405 21bf
00000150: 96f6 9bbd a0e8 873b 3df3 cebe b5eb d73d
00000160: 4e44 8f3e 13a0 163f d4f6 113d a71e 86be
00000170: 1138 14be 997d 92bf ef9b b13e 4a91 eebd
00000180: cd5a 623c 156c b2bd adf4 913e 4168 163e
00000190: 1320 53be f107 82bd 27ee 023e 7b14 a9bf
000001a0: 756e 46be c695 4a3d 53f6 ba3d 7ba8 90bc
000001b0: 667f c9be be22 09be 9c4c 1dbe 58c0 03bd
000001c0: b7a6 1b3d 9c4b 72be 3eda b2bd b864 ae3d
000001d0: f13a b9bd 5daa 2bbe 666a 333e 05ef 163a
000001e0: 3903 8abd a2c6 413e 652f f63d 7f40 283e
000001f0: 9013 c63d 7fb4 bcbd 36c6 bb3d 9c68 c4bd
00000200: 1bb0 29be 266f e9bd 7184 19bc ee29 79be
00000210: 0f24 05be f53e 95be e37a fdbc 8b2e 5f3b
00000220: 9dfe 32be bb52 e4bc ac24 0f3e 34dd bb3d
00000230: fe49 1d3e d928 cb3d ceb7 e33e 5c99 cb3d
00000240: 0064 293d d30c 5b3e 4d8e cbbd cf0f 32be
00000250: 2c7a b5bc d062 d6bd 5241 c1be 9b17 123f
00000260: 3301 033e 00a2 973e 3c2a 61be 8bac 553e
00000270: 44fc 58be 6f8d 19bd 1d8e 32bd d6a1 b2bd
00000280: 1c65 5bbd 3ee2 67bb 0712 a6be 7330 cebc
00000290: 7d3e 02bf fc5b 31bc 93e7 683e 84e4 0bbf
000002a0: 54b7 8ebd 7f99 bfbe c441 62bd 6978 93bd
000002b0: 3474 e33c 7645 9cbe 3b31 ae3d bc64 8c3d
000002c0: d685 6b3e c865 59bd 0a9b d13d b4ac d33d
000002d0: e30b cf3d f1f8 83be 92dc 413e a75e 5ebe
000002e0: 88a7 993d eed7 1d3d 4b21 353e ae11 063e
000002f0: d056 a53d ce95 bd3a 6942 aa3e 52e0 b53d
00000300: 0ec0 6f3e 692d aabc b286 d3bb 0ff3 123e
00000310: 0b79 0f3e a4fe a83d bfa5 7bbe d252 4dbe
00000320: 3d8c 0abe 4bfa 1d3e 2d32 063e 1334 cabd
00000330: d765 a2bb 9685 ffbd a917 c3be 859f f03c
00000340: 7ad5 e33b c22f c0bb e394 163e a00e c1bc
00000350: a1e5 e5bd 009c e9b9 02dc 1d3e 0dd2 8fbe
00000360: fdd4 0dbe cb35 67be b41f f43d 98fc 733d
00000370: 5dec 65bc 8c1c f53c 17a0 93bd c884 b33d
00000380: 3b6d 1ebe 717f 3bb9 f6e8 a43e 4a9c 0dbe
00000390: d07e 973e 6203 88be 1319 f8bd 8ea6 f73d
000003a0: f610 14be b4c9 133c 38b1 503d 4c4d d63d
000003b0: 0edc e0bd 49c0 e33c 22f7 563e e05f d0bd
000003c0: 5ae9 a6be 3628 a0bd 58a3 ee3d 9786 9bbd
000003d0: c5f6 e83d 4ac8 e13d 0674 203c 97c7 cd3d
000003e0: 15dd 38bd aee2 97bd 9d35 c9bd e471 acbd
000003f0: 644b 613c 9e24 9c3d e70d 23be 1925 42bd

ad1.bias f4 [32]
0.07783822 -0.007986588 -0.06546519 -0.025118878 -0.08714213 -0.11601737 -0.039039437 -0.051544778
-0.024232488 -0.0021862774 -0.034379497 -0.06693774 0.035034057 0.10185557 0.0034353915 -0.14981408
-0.06321834 0.12866503 0.00716375 -0.2114944 0.029119415 0.033789683 -0.014101464 0.15126795
-0.16651495 -0.059531994 -0.21347332 -0.05156412 0.055591635 -0.093611516 -0.034181807 0.029853662
00000000: a569 9f3d 2eda 02bc 9d12 86bd 1bc6 cdbc
00000010: 9377 b2bd 849a edbd d1e7 1fbd 9e20 53bd
00000020: 3683 c6bc a647 0fbb 84d1 0cbd a716 89bd
00000030: df7f 0f3d a799 d03d 4e24 613b dd68 19be
00000040: 9e78 81bd c4c0 033e e4bd ea3b fd91 58be
00000050: d78b ee3c 0d67 0a3d d409 67bc fce5 1a3e
00000060: e582 2abe d2d7 73bd c098 5abe e634 53bd
00000070: 0eb4 633d 65b7 bfbd 3902 0cbd ab8f f43c

ad2.weight f4 [3, 32]
0.2035228 -0.6394652 -1.1459925 0.17051089 0.1300948 -0.09672788 -0.10012194 0.16813582
0.04418478 -0.24073029 0.07835371 0.05904753 -0.06286606 0.121339254 0.03736383 -0.10497551
0.18979731 -0.22590478 0.09483477 -0.22239685 -0.8180168 -0.13098559 -0.057110682 -0.7952872
0.041033424 0.33834678 -0.30174673 1.0582826 -0.07318007 -0.8838497 0.09035257 -0.34706855
0.20059784 -0.07403278 0.21974948 -0.15618776 -0.10285084 0.12717958 -0.036856145 0.20793603
-0.23405641 0.112548806 -1.1507918 0.04277454 -1.14194 -0.017367484 0.17289226 0.003419859
-0.0036450708 0.06416757 0.17003904 -0.139172 0.08554326 -0.042748857 0.022234581 1.2049891
-0.16402082 -0.29405835 -0.23836625 -1.0501773 -0.023066677 0.28435248 -0.10268282 -0.035475828
-0.003414359 0.38220915 0.6657486 -0.08560304 -0.042176843 -0.10928928 -0.15027396 -0.23763256
0.16940857 0.016095113 0.8017301 0.23876 0.82176244 -0.07241988 0.13471302 0.14196809
-0.148564 -0.11579718 -0.184992 0.3918754 0.25825268 0.16454978 -0.13710369 -0.94739354
-0.04346785 0.096004725 0.18797004 -0.6797147 0.17353955 0.49588752 -0.13984308 0.33070636
00000000: 4868 503e feb3 23bf e2af 92bf 689a 2e3e
00000010: 9237 053e 4419 c6bd bb0c cdbd cc2b 2c3e
00000020: 1afb 343d 0082 76be e977 a03d d3db 713d
00000030: ecbf 80bd b780 f83d d10a 193d 66fd d6bd
00000040: 3a5a 423e 9553 67be bb38 c23d 00bc 63be
00000050: 8d69 51bf 1621 06be e4ec 69bd f197 4bbf
00000060: aa12 283d ca3b ad3e 8c7e 9abe ce75 873f
00000070: 6fdf 95bd f943 62bf c50a b93d f8b2 b1be
00000080: 8569 4d3e 809e 97bd 0206 613e afef 1fbe
00000090: 76a3 d2bd 5d3b 023e 78f6 16bd 2fed 543e
000000a0: 7cac 6fbe fd7f e63d 254d 93bf 5b34 2f3d
000000b0: 172b 92bf 4146 8ebc ab0a 313e b71f 603b
000000c0: 24e2 6ebb 496a 833d b71e 2e3e 1b83 0ebe
000000d0: 4e31 af3d 6d19 2fbd 4c25 b63c 153d 9a3f
000000e0: 13f5 27be d18e 96be 4816 74be 366c 86bf
000000f0: 54f6 bcbc a696 913e 5f4b d2bd 1a4f 11bd
00000100: 70c3 5fbb ebb0 c33e 806e 2a3f a650 afbd
00000110: a0c1 2cbd 0fd3 dfbd 6be1 19be f355 73be
00000120: 7179 2d3e e6d9 833c 2f3e 4d3f 807d 743e
00000130: 065f 523f e050 94bd 36f2 093e 1560 113e
00000140: 2921 18be 1227 edbd 8b6e 3dbe e4a3 c83e
00000150: b239 843e bd7f 283e e964 0cbe 6288 72bf
00000160: 580b 32bd 209e c43d 387b 403e c801 2ebf
00000170: 5ab4 313e f8e4 fd3e 0633 0fbe 5852 a93e

ad2.bias f4 [3]
0.1820316 0.07695307 -0.12079724
00000000: 7e66 3a3e 9299 9d3d 8b64 f7bd

va1.weight f4 [32, 64]
0.28659105 0.008982944 -0.18640177 0.2895557 0.2812226 -0.39350274 -0.4842126 -0.40403363
-0.22215474 0.14739418 0.21202457 -0.05213521 -0.11155056 -0.8309574 -0.08913045 -0.019410063
-0.095191225 -0.019061916 -0.069064975 -0.7199905 -0.13916892 0.07496706 -0.69521725 0.056942903
0.20728417 0.5818255 0.04248076 -0.4495093 -0.22154383 -0.17692225 0.1428298 0.069415756
-0.12993103 -0.24100909 0.17564407 -0.029189536 0.006295029 -0.389099 0.020709846 -1.2300569
-0.09395884 -0.029508956 0.07587472 0.109288536 -0.20071776 -0.27746004 0.3783154 -0.072404265
-0.081325985 -0.13830398 -0.019146457 0.14218166 0.022425022 -0.1569613 0.1604648 -0.066902645
-0.041898966 0.04188724 0.08464462 0.25510538 -0.012017379 0.09551125 -0.1125182 -0.00012282678
-0.06771222 0.09910778 -0.075960405 -0.007965266 -0.34029695 -0.015206156 -0.08862367 -0.14017507
-0.08036278 0.10151848 0.1252299 0.08427164 0.00871584 -0.255242 0.55175227 0.0088953525
0.016133275 0.058128174 -0.0802913 -0.13414888 -0.16716331 0.07048191 -0.28121608 0.52883494
0.18794596 0.055393614 -0.1265633 -0.10714333 -0.05331569 0.0017617139 0.24375366 0.059797898
-0.048546497 -0.21672533 -0.26846668 -0.084418446 -0.19762084 -0.26110357 -0.062000636 -0.84769917
0.2510229 -0.3068631 0.006723831 0.011366935 0.040869303 -0.5001587 0.4947702 -0.06795415
0.03667638 0.09598646 -0.07000678 0.030605597 0.26687264 -0.49170092 0.105268344 -0.09647381
-0.10332336 -0.032360177 0.22663058 -0.10657937 0.095153525 -0.09754306 0.22103243 -0.077739075
0.04596502 0.1208664 -0.08638403 0.21540493 0.3305586 0.06896769 0.21283317 -0.011360411
0.045856327 -0.073401354 0.016244236 0.07147423 -0.019677099 0.16959949 -0.15644024 0.087594
-0.073085606 0.050547887 -0.23014669 -0.5328659 0.13870716 -0.090902105 -0.10687671 -0.02078914
-0.018861469 -0.014841361 -0.07847552 0.041042376 -0.118723154 -0.07273537 -0.21190926 0.13948557
0.07803004 -0.07601393 0.4225396 -0.23207113 0.2124596 -0.021223558 -0.17378597 -0.11171559
-0.20771042 -0.24358805 -0.025296781 0.0857297 -0.18184742 -0.13216835 0.5467476 -0.02409324
-0.35035855 0.01915703 -0.042191833 -0.15705508 0.0009955671 -0.17167224 -0.06902086 -0.062208984
-0.10758018 0.11637654 -0.11822873 -0.19375528 -0.004938472 -0.018847434 -0.09358986 0.22805811
-0.47848502 0.103149444 -0.08987168 -0.39608255 -0.21482821 -0.29956967 0.08102025 0.08015503
-0.13231783 0.16344574 -0.15919657 0.07065074 0.08832255 -0.20422661 0.36373758 -0.08363362
-0.0058756857 -0.038589448 0.07548095 -0.18579519 -0.07328345 0.0886862 -0.27423662 0.4808117
-0.022907263 0.12092075 -0.20079075 0.19429462 -0.06505224 -0.1176026 -0.19847584 0.071897335
-0.1083427 0.052464668 -0.26144773 0.17023945 -0.34712374 0.2794137 0.040481273 -0.23301022
0.03354567 -0.34862044 0.049344353 -0.004770033 -0.10956961 -0.32673287 -0.073847786 -0.066178605
0.022408672 -8.89258e-05 -0.0058692545 -0.019060666 0.067581594 -0.25086558 0.23740439 -0.13547279
-0.06776474 0.048071157 0.18376485 -0.43214038 -0.096248075 -0.07662462 0.53907514 -0.0404619
00000000: 10bc 923e 332d 133c 1be0 3ebe a540 943e
00000010: 69fc 8f3e 3179 c9be b7ea f7be 7fdd cebe
00000020: 887c 63be 80ee 163e f81c 593e bb8b 55bd
00000030: 9f74 e4bd a0b9 54bf 068a b6bd da01 9fbc
00000040: 9ef3 c2bd bc27 9cbc f071 8dbd 4c51 38bf
00000050: 4c82 0ebe 5488 993d c2f9 31bf f63c 693d
00000060: 4d42 543e 84f2 143f 4e00 2e3d 1526 e6be
00000070: 63dc 62be 1b2b 35be fa41 123e d929 8e3d
00000080: a40c 05be 16cb 76be 0adc 333e e51e efbc
00000090: 8846 ce3b fc37 c7be b2a7 a93c 8172 9dbf
000000a0: 7e6d c0bd c4bc f1bc 3564 9b3d abd2 df3d
000000b0: f588 4dbe 3e0f 8ebe 8eb2 c13e b048 94bd
000000c0: 3d8e a6bd 8f9f 0dbe 08d9 9cbc 1298 113e
000000d0: aeb4 b73c 77ba 20be e250 243e 4104 89bd
000000e0: 409e 2bbd f491 2b3d 295a ad3d 2c9d 823e
000000f0: 8ae4 44bc 679b c33d f16f e6bd 10cb 00b9
00000100: b4ac 8abd 05f9 ca3d 2191 9bbd bf80 02bc
00000110: 673b aebe 3e23 79bc 5480 b5bd 0e8a 0fbe
00000120: 3e95 a4bd ece8 cf3d 443c 003e 9c96 ac3d
00000130: e2cc 0e3c 14af 82be a33f 0d3f d0bd 113c
00000140: ee29 843c cf17 6e3d c46f a4bd 535e 09be
00000150: dc2c 2bbe d258 903d 8efb 8fbe ba61 073f
00000160: e874 403e 6ae4 623d cf99 01be f66d dbbd
00000170: 8e61 5abd 4fe9 e63a 8f9a 793e a4ee 743d
00000180: b1d8 46bd 3fed 5dbe 7774 89be 94e3 acbd
00000190: 1e5d 4abe 5eaf 85be 61f4 7dbd d002 59bf
000001a0: 1386 803e 291d 9dbe 9553 dc3b 623c 3a3c
000001b0: 9266 273d 670a 00bf 8552 fd3e 8c2b 8bbd
000001c0: f939 163d 8d94 c43d b75f 8fbd 97b8 fa3c
000001d0: 88a3 883e 39c0 fbbe ee96 d73d 1094 c5bd
000001e0: 339b d3bd 1b8c 04bd d911 683e 4946 dabd
000001f0: dadf c23d a8c4 c7bd 5356 623e aa35 9fbd
00000200: d145 3c3d ce88 f73d 1cea b0bd 1c93 5c3e
00000210: fa3e a93e ef3e 8d3d f0f0 593e 0421 3abc
00000220: d8d3 3b3d 7353 96bd a212 853c 1561 923d
00000230: de31 a1bc 7dab 2d3e df31 20be 7c64 b33d
00000240: e8ad 95bd 4d0b 4f3d 93ab 6bbe e669 08bf
00000250: 4009 0e3e e22a babd 2de2 dabd fd4d aabc
00000260: 5e83 9abc 2e29 73bc c6b7 a0bd 0d1c 283d
00000270: 2025 f3bd 48f6 94bd befe 58be 4ed5 0e3e
00000280: 37ce 9f3d 31ad 9bbd 1c57 d83e 0ea4 6dbe
00000290: 028f 593e 07dd adbc f3f4 31be 25cb e4bd
000002a0: 0ab2 54be 256f 79be 323b cfbc 0e93 af3d
000002b0: 3636 3abe 2457 07be a7f7 0b3f 305f c5bc
000002c0: 3262 b3be 34ef 9c3c 58d1 2cbd 0cd3 20be
000002d0: b07d 823a d9ca 2fbe cf5a 8dbd d9ce 7ebd
000002e0: ff52 dcbd d356 ee3d e821 f2bd c967 46be
000002f0: e8d2 a1bb ef65 9abc 0aac bfbd 1188 693e
00000300: fdfb f4be 0440 d33d a50e b8bd 55cb cabe
00000310: edfb 5bbe 3261 99be f2ed a53d 5228 a43d
00000320: 537e 07be 525e 273e 6d04 23be 56b1 903d
00000330: 74e2 b43d c820 51be d03b ba3e 1a48 abbd
00000340: d388 c0bb f80f 1ebd c295 9a3d 1841 3ebe
00000350: a215 96bd 1ca1 b53d be68 8cbe f32c f63e
00000360: 03a8 bbbc 4ca5 f73d 179c 4dbe 2bf5 463e
00000370: 1c3a 85bd a2d9 f0bd 403d 4bbe e93e 933d
00000380: c7e2 ddbd 31e5 563d 7adc 85be 4053 2e3e
00000390: 34ba b1be 500f 8f3e b1cf 253d 3b9a 6ebe
000003a0: 2f67 093d 617e b2be 4e1d 4a3d f04d 9cbb
000003b0: 0866 e0bd 8849 a7be 823d 97bd a688 87bd
000003c0: 6492 b73c ad7d bab8 e052 c0bb 1d25 9cbc
000003d0: 3868 8a3d 7471 80be 231a 733e 61b9 0abe
000003e0: 3dc8 8abd 43e6 443d da2c 3c3e 8141 ddbe
000003f0: b61d c5bd 5eed 9cbd d400 0a3f 61bb 25bd

va1.bias f4 [32]
-0.60511225 -0.475872 0.28533077 -0.4226764 -0.29687977 -0.016238438 -0.35199907 -0.2787034
-0.3400492 0.4255845 -0.19338934 0.3299406 0.51907694 -0.1976548 -0.29138514 -0.26191854
-0.053482726 0.18823245 -0.27439174 -0.3687925 0.4801918 -0.10161925 -0.42390013 -0.33806846
-0.18288481 -0.089351796 -0.32391953 -0.38184625 -0.12715739 -0.22294977 0.07423475 -0.44463468
00000000: a3e8 1abf 7fa5 f3be e016 923e 0b69 d8be
00000010: a000 98be 7906 85bc 3939 b4be 36b2 8ebe
00000020: ee1a aebe 36e6 d93e db07 46be f9ed a83e
00000030: 3ae2 043f 0566 4abe 6f30 95be 301a 86be
00000040: b410 5bbd 02c0 403e 137d 8cbe 5fd2 bcbe
00000050: b3db f53e c11d d0bd 7009 d9be 4f17 adbe
00000060: 2846 3bbe 13fe b6bd c8d8 a5be 5a81 c3be
00000070: 8c35 02be f24c 64be 6308 983d 28a7 e3be

va2.weight f4 [1, 32]
0.9214745 1.2061166 -1.145787 1.0421917 0.33008042 -0.08128604 1.3458798 1.1462163
0.20986386 -0.40353101 0.15331593 -0.47663552 -0.39217925 0.21674764 0.1588073 0.25567955
0.013637605 -0.5452757 0.2964406 1.6400586 -0.20030776 0.09724658 0.3276928 1.0674536
0.28051394 -0.12553374 0.322779 1.1151141 -0.10748759 1.0885412 -0.24324617 1.3951108
00000000: c1e5 6b3f 0762 9a3f 26a9 92bf 8a66 853f
00000010: 4d00 a93e 4c79 a6bd ca45 ac3f 37b7 923f
00000020: 8de6 563e 9e9b cebe dafe 1c3e 9209 f4be
00000030: b8cb c8be 18f3 5d3e 619e 223e 6ee8 823e
00000040: 4370 5f3c 3097 0bbf 10c7 973e 71ed d13f
00000050: 7a1d 4dbe 3729 c73d 5ac7 a73e 52a2 883f
00000060: 869f 8f3e eb8b 00be 4a43 a53e 0fbc 8e3f
00000070: 7422 dcbd 5155 8b3f 8615 79be fe92 b23f
